split_cifar_model.pth (torch, 310700 bytes, 6 tensors)

client.0.weight f4 [64, 3, 3, 3]
-0.11422105 -0.17114832 -0.28810948 -0.30403966 0.18843639 0.8545686 -0.65214705 -0.020888966
0.54843616 -0.79078984 -0.38625577 0.5741685 -1.0292068 0.239 1.3103718 -0.98363394
-0.18009992 1.2165968 -0.82365626 -0.2658638 0.56926185 -1.2773015 0.30327022 1.4282006
-1.0848349 -0.010417292 1.2447219 -0.96563816 -0.5780408 -0.7318908 -0.5351877 -0.06712797
-0.08809719 -0.85627383 -0.27493986 -0.329835 0.26950297 0.17126039 0.11466165 0.4460164
0.9845399 0.7316955 0.27321264 0.45795166 0.72073406 0.21743713 0.1268335 -0.037108224
0.33896118 0.56129414 0.45905334 -0.0959352 -0.018281857 -0.19827814 0.02537487 -0.43618423
-0.35908237 -0.2593544 -0.24501622 -0.3175134 0.29559642 0.37514555 0.035214204 0.25911132
0.5078511 0.43689552 -0.68680644 -0.432486 -0.75850683 -0.9518897 -0.7595511 -0.82976013
1.0620589 1.399115 1.4875978 -0.08676098 0.46527603 0.4541118 -0.6118512 -0.1768523
-0.39332056 -0.26929706 -0.5360852 -0.54786766 0.20482896 -0.13450707 -0.12476333 -0.0021474774
-0.5776927 -0.61240476 -0.9160171 -0.94054437 -0.9212274 0.2029541 0.42264038 0.21883032
0.1685684 0.005990711 -0.13872968 -0.9049374 -0.4167941 -0.4117653 0.67837006 1.175574
1.0019476 1.1204482 1.462819 1.3200343 0.6567133 0.5333051 0.8526447 -0.007739642
-0.08562689 0.16202022 -0.47546965 -0.7489673 -0.54028124 -0.12708203 -0.23457313 -0.072108716
0.27209637 0.2075548 -0.07411777 0.37743655 0.45813122 0.14474377 -0.71448517 -0.5289586
-0.6892463 -0.36453834 -0.049729906 -0.35627356 0.6135457 0.44348055 0.46233982 -0.15476847
-0.2847945 -0.08979579 -0.32852107 -0.40887693 -0.19066966 -0.56622136 -0.8338238 -0.4392411
0.6972943 0.36834934 0.9831448 0.54886293 0.74896586 0.8488717 0.43668035 0.637847
0.9756509 -0.046392553 -0.6474198 -0.11630857 -0.36727086 -0.83027273 -0.42577428 -0.35407257
-0.3363708 -0.13172099 -0.32439137 -0.5041248 -0.31814227 0.34317353 0.27613944 0.15746857
0.80210066 0.88594735 0.40713215 -0.51361763 -0.44859198 -0.5095305 -0.6001762 -0.5836357
-0.48405924 -0.6185793 -0.77435464 -0.74367917 0.6192879 0.6002364 0.6633515 0.56318814
0.57781357 0.3070155 0.30063647 0.16688158 -0.15702485 1.2017752 -0.12524627 -0.9804099
0.90898895 0.122027926 -1.1148694 0.41227534 0.1631056 -0.55623686 1.4782064 -0.0077054654
-1.260629 1.1974148 -0.31279215 -1.4271538 0.711635 -0.12249751 -0.57122177 0.985192
-0.0028597962 -1.0163264 1.0517133 -0.03838214 -0.98631614 0.63164294 -0.05349217 -0.32073727
0.37212652 0.6455148 0.48253864 -0.13084412 0.20634337 0.1149538 -0.43679234 -0.82860184
-0.41734374 0.68865174 1.118818 0.75428367 -0.23305306 0.15568542 0.02410647 -0.8854516
-0.94846517 -0.70448697 0.86033165 0.90618396 0.4155698 0.19673711 0.03554961 0.019051723
-0.7876224 -0.8570502 -0.7514057 0.3464997 0.08113527 0.20771846 -0.20309593 -0.60261625
-0.47124532 -0.30145353 -0.63243026 -0.98620486 0.49202618 0.3839534 0.906587 0.17410246
00000000: baec e9bd 8141 2fbe 1683 93be 16ab 9bbe
00000010: 78f5 403e 02c5 5a3f 1cf3 26bf 561f abbc
00000020: 5066 0c3f 3471 4abf 51c3 c5be b5fc 123f
00000030: 0cbd 83bf 6abc 743e 43ba a73f 6fcf 7bbf
00000040: 1d6c 38be 72b9 9b3f 23db 52bf 4d1f 88be
00000050: 25bb 113f 9e7e a3bf 3c46 9b3e 47cf b63f
00000060: dfdb 8abf 4aad 2abc 0c53 9f3f 1034 77bf
00000070: 7bfa 13bf 325d 3bbf 1002 09bf 647a 89bd
00000080: 4d6c b4bd c334 5bbf ebc4 8cbe 22e0 a8be
00000090: 4bfc 893e e25e 2f3e bad3 ea3d 435c e43e
000000a0: cf0a 7c3f 6550 3b3f 87e2 8b3e a478 ea3e
000000b0: 0782 383f d7a7 5e3e a4e0 013e cbfe 17bd
000000c0: 528c ad3e f9b0 0f3f 0a09 eb3e ad79 c4bd
000000d0: d5c3 95bc 6d09 4bbe f6de cf3c 8a53 dfbe
000000e0: a5d9 b7be 1aca 84be 88e5 7abe 1e91 a2be
000000f0: 6a58 973e 1413 c03e c53c 103d 3daa 843e
00000100: 8802 023f c5b0 df3e 8cd2 2fbf ce6e ddbe
00000110: 812d 42bf 0baf 73bf f171 42bf 296b 54bf
00000120: 8cf1 873f 3316 b33f 9b69 be3f beaf b1bd
00000130: a938 ee3e 5881 e83e 48a2 1cbf c518 35be
00000140: 5061 c9be 4ee1 89be e13c 09bf 0e41 0cbf
00000150: afbe 513e 39bc 09be eb83 ffbd b1bc 0cbb
00000160: abe3 13bf 8fc6 1cbf 1980 6abf 84c7 70bf
00000170: 8fd5 6bbf 33d3 4f3e 5264 d83e 0e15 603e
00000180: 329d 2c3e ba4d c43b 270f 0ebe faa9 67bf
00000190: 0966 d5be e7d2 d2be a9a9 2d3f 3579 963f
000001a0: d23f 803f d96a 8f3f a73d bb3f e2f6 a83f
000001b0: 5d1e 283f af86 083f ec46 5a3f d39c fdbb
000001c0: 275d afbd a1e8 253e c270 f3be 52bc 3fbf
000001d0: df4f 0abf cb21 02be f033 70be bcad 93bd
000001e0: 3750 8b3e 3f89 543e 0fcb 97bd 5d3f c13e
000001f0: 2d90 ea3e b637 143e 80e8 36bf d569 07bf
00000200: 7272 30bf c5a4 babe 96b1 4bbd 7d69 b6be
00000210: 5511 1d3f e20f e33e ceb7 ec3e a07b 1ebe
00000220: 96d0 91be dbe6 b7bd ea33 a8be 5158 d1be
00000230: e83e 43be e2f3 10bf 7a75 55bf 36e4 e0be
00000240: e181 323f 4998 bc3e 61af 7b3f 4882 0c3f
00000250: 3abc 3f3f a84f 593f 9194 df3e f149 233f
00000260: 42c4 793f 1e06 3ebd 4ebd 25bf 3033 eebd
00000270: ed0a bcbe c18c 54bf 16ff d9be 0049 b5be
00000280: cb38 acbe dee1 06be a016 a6be 530e 01bf
00000290: 8be3 a2be 71b4 af3e 2662 8d3e 713f 213e
000002a0: 7856 4d3f 72cd 623f a073 d03e 727c 03bf
000002b0: d9ad e5be 9770 02bf 26a5 19bf 2669 15bf
000002c0: 9dd6 f7be 375b 1ebf 1b3c 46bf c261 3ebf
000002d0: a789 1e3f 18a9 193f 67d1 293f 192d 103f
000002e0: 97eb 133f 2331 9d3e 06ed 993e 01e3 2a3e
000002f0: 1fcb 20be c5d3 993f 8f40 00be 25fc 7abf
00000300: 80b3 683f c7e9 f93d 0ab4 8ebf c115 d33e
00000310: 2805 273e 8a65 0ebf de35 bd3f 217e fcbb
00000320: 4b5c a1bf e344 993f 4b26 a0be faac b6bf
00000330: b62d 363f f9df fabd 973b 12bf 8b35 7c3f
00000340: 6b6b 3bbb fc16 82bf 8b9e 863f 9736 1dbd
00000350: 377f 7cbf 5ab3 213f 9b1a 5bbd ad37 a4be
00000360: 5e87 be3e 7540 253f 4e0f f73e 00fc 05be
00000370: ad4b 533e e66c eb3d 3fa3 dfbe 401f 54bf
00000380: 14ae d5be 7b4b 303f 6e35 8f3f bc18 413f
00000390: 76a5 6ebe 006c 1f3e ef7a c53c f5ac 62bf
000003a0: 9dce 72bf 4259 34bf b23e 5c3f acfb 673f
000003b0: 91c5 d43e 7475 493e 789c 113d 5c12 9c3c
000003c0: 9fa1 49bf a467 5bbf 205c 40bf 6968 b13e
000003d0: 402a a63d 26b4 543e 61f8 4fbe 0f45 1abf
000003e0: 1147 f1be 1e58 9abe f3e6 21bf ec77 7cbf
000003f0: dbea fb3e 8a95 c43e 1616 683f ea47 323e

client.0.bias f4 [64]
-0.123080924 -0.371862 -0.37239724 -0.62798804 -0.17489398 -0.39482597 0.018066915 -0.18265086
-0.045040224 -0.5472336 -1.1105508 -0.10264767 -2.1443846 -0.56917715 -1.1002825 0.19680361
0.09844181 0.15208465 -0.040444616 -1.3978884 -1.0453506 -0.6836271 0.16073598 0.060169145
-1.0207458 -0.100269064 -0.037236154 -0.5145485 -1.7489012 0.1992334 0.064260945 0.117713705
-0.39447063 0.025522597 -0.13049889 0.1464541 0.06040063 0.08582515 0.03178856 -0.065180466
-0.7849359 -0.034904577 0.026315847 -0.008856787 -0.13133068 -0.7125244 -0.024115456 0.015142902
0.20277222 -0.732147 -0.6265838 0.039676435 -0.058245074 0.3762096 -0.069656305 -1.1062181
-0.7804165 -0.1130576 -0.0077108033 0.04393446 0.18212907 -0.6891528 0.0005584512 -0.15931633
00000000: da11 fcbd b264 bebe daaa bebe d3c3 20bf
00000010: 6817 33be a126 cabe 1101 943c d408 3bbe
00000020: 197c 38bd 8017 0cbf 8726 8ebf f138 d2bd
00000030: 993d 09c0 98b5 11bf 0fd6 8cbf e386 493e
00000040: dc9b c93d 14bc 1b3e 41a9 25bd 02ee b2bf
00000050: 0cce 85bf 3002 2fbf f997 243e ec73 763d
00000060: cca7 82bf de59 cdbd f084 18bd 73b9 03bf
00000070: ffdb dfbf d703 4c3e 3e9b 833d e213 f13d
00000080: 0ef8 c9be c414 d13c 80a1 05be 10f8 153e
00000090: a766 773d 19c5 af3d b934 023d 567d 85bd
000000a0: 8ff1 48bf 1af8 0ebd 5594 d73c 0f1c 11bc
000000b0: 8d7b 06be 0068 36bf c78d c5bc ef19 783c
000000c0: 85a3 4f3e fc6d 3bbf cc67 20bf c283 223d
000000d0: 6392 6ebd 8b9e c03e f7a7 8ebd 8e98 8dbf
000000e0: 60c9 47bf be8a e7bd e8aa fcbb 9ff4 333d
000000f0: 0b80 3a3e 516c 30bf 0765 123a d223 23be

client.2.weight f4 [128, 64, 3, 3]
1.5779437 0.8028231 0.44380882 0.70946723 -0.10306817 -0.8881746 -0.07569892 -1.615815
-2.199253 0.9723713 0.4289069 -0.55136913 0.6885186 -0.16923787 -1.5684228 1.1030194
0.21944192 -1.1555839 -0.012291479 0.06283461 -0.011815571 0.5961604 0.2971469 -0.2684688
0.48767826 0.061682027 -0.5571382 0.19915427 -0.7118004 -0.2630528 -0.4558391 -1.3151498
-0.63386846 -0.32769763 -1.3677644 -0.36699983 0.95063394 1.1987499 1.2869135 0.30259573
0.6462096 0.43942177 0.43540317 0.69823474 0.08813287 -0.2614522 -0.116997756 -0.35372517
-0.17652638 -0.3197649 -0.7737962 0.067230806 -0.25293675 -0.8481756 1.1582185 0.88350606
0.7532278 0.512379 0.14976437 0.03694148 0.0916706 -0.31533107 -0.44032618 0.26178983
0.9833422 0.9286242 -0.22797073 0.6129691 0.6388823 -1.2152562 0.27088583 0.604849
0.044384494 0.3608729 0.45601672 0.40679407 0.28918585 0.11093861 0.44554234 0.17903945
0.105066136 0.18615088 -0.13774341 0.16700374 0.3506125 -0.33275455 -0.07425468 -0.21231593
-0.5095267 0.28670707 1.2241381 -0.1988761 -1.1504625 1.1174959 -0.14709002 -1.2192703
0.5647751 -0.5409667 -1.339779 0.07264158 0.65348434 0.52228546 -0.68872726 0.27344006
0.2984051 -1.5901084 -0.008517042 0.3739688 -1.6329612 -1.8249638 -0.85466677 -2.3234043
-2.2565773 0.71606266 -2.5659199 -4.397297 0.95627 0.004999377 0.22831392 0.47065952
-0.2912587 -0.2317884 0.008525418 -0.6376289 -0.6204204 -0.42655912 1.7547684 1.2819024
0.02402123 1.1680206 -0.043647327 -1.8404864 1.0158988 -1.0148698 -1.827566 -0.32083884
-0.35148832 -0.13707471 -0.40961444 -0.38417906 -0.1787221 -0.27873254 -0.22417207 -0.0471911
-0.043465827 0.22425015 -0.11057886 0.16845457 0.27056548 0.048867367 0.3052565 0.45173585
0.41590825 -0.4421891 -0.42979184 -0.36518148 -0.82223636 -0.5910312 -0.860261 -0.22440343
-0.27059865 -0.37529933 0.32855445 0.42147854 0.21823648 -0.08766867 -0.15546426 -1.2617371
0.7803307 0.054817673 -0.112485744 -1.3082156 -1.230491 -0.22979964 -3.5870109 -3.3126175
-0.7763516 -6.3256907 -7.7063394 -1.8465105 -0.36823457 -0.0773956 -0.030649748 -0.47170693
-0.1559417 -0.14823258 -0.618723 -0.36599594 -0.445097 1.2871635 0.52385813 -0.2297337
0.4519506 -0.49254245 -1.7751095 0.26238093 -0.75833875 -2.0051248 -0.12832198 -0.10057488
0.06782811 -0.32814083 -0.25951186 -0.022920765 -0.25869206 -0.10590669 0.13636667 -0.09804132
0.42209715 0.66757894 0.025253551 0.16468427 0.36967674 -0.16646236 -0.069533825 0.24479972
-0.87842053 -1.0714364 -0.32814965 -0.3244428 -0.97121835 -0.4832362 0.218362 -0.42226088
0.2545753 0.38381884 0.3407002 0.3450341 0.25200778 0.08839078 -0.011115856 0.26664987
0.090384476 -0.018081179 0.0027094234 0.07238001 0.26116472 0.39081216 0.061687067 -0.20153287
0.6999829 0.075187236 -0.19805954 -0.03332856 0.11231707 0.4353181 0.68061125 0.29957935
0.22578877 1.1864074 0.57536805 0.40518087 1.4619846 0.7305396 0.32504672 0.7951888
00000000: 0ffa c93f d185 4d3f e93a e33e a59f 353f
00000010: 6815 d3bd 695f 63bf 0908 9bbd 07d3 cebf
00000020: 90c0 0cc0 53ed 783f af99 db3e 8726 0dbf
00000030: c142 303f b14c 2dbe 14c2 c8bf bd2f 8d3f
00000040: 62b5 603e 2cea 93bf 3362 49bc 6faf 803d
00000050: 1996 41bc f89d 183f a323 983e be74 89be
00000060: f7b0 f93e 4ba6 7c3d 9ca0 0ebf 19ef 4b3e
00000070: 8d38 36bf dbae 86be be63 e9be d456 a8bf
00000080: 3445 22bf fcc7 a7be e712 afbf 67e7 bbbe
00000090: bf5c 733f a370 993f 95b9 a43f d4ed 9a3e
000000a0: fe6d 253f e4fb e03e 2aed de3e 83bf 323f
000000b0: 027f b43d 10dd 85be 859c efbd 771b b5be
000000c0: 55c3 34be 3ab8 a3be 8217 46bf 4eb0 893d
000000d0: ed80 81be 0922 59bf 8140 943f 742d 623f
000000e0: 89d3 403f 452b 033f d55b 193e f34f 173d
000000f0: ccbd bb3d 1373 a1be 6f72 e1be 5109 863e
00000100: 50bc 7b3f 51ba 6d3f 2971 69be 8beb 1c3f
00000110: ca8d 233f 848d 9bbf 8cb1 8a3e 62d7 1a3f
00000120: 84cc 353d 55c4 b83e 067b e93e 5047 d03e
00000130: 2b10 943e c833 e33d 201e e43e 1e56 373e
00000140: ea2c d73d 569e 3e3e 9c0c 0dbe 0703 2b3e
00000150: 7b83 b33e ce5e aabe d612 98bd 5969 59be
00000160: 5870 02bf 45cb 923e 8fb0 9c3f 2da6 4bbe
00000170: 5b42 93bf 1b0a 8f3f c49e 16be 0d11 9cbf
00000180: 1a95 103f cb7c 0abf e17d abbf 1cc5 943d
00000190: c04a 273f 80b4 053f 6e50 30bf 5600 8c3e
000001a0: 8ec8 983e ac88 cbbf 108b 0bbc d778 bf3e
000001b0: df04 d1bf 6a98 e9bf 71cb 5abf a8b2 14c0
000001c0: c36b 10c0 e24f 373f 0838 24c0 a8b6 8cc0
000001d0: 1cce 743f d0d1 a33b 20cb 693e 49fa f03e
000001e0: dc1f 95be f059 6dbe 32ae 0b3c a63b 23bf
000001f0: dfd3 1ebf f565 dabe 409c e03f 6115 a43f
00000200: 2cc8 c43c b381 953f 8ac7 32bd 0f95 ebbf
00000210: f908 823f 41e7 81bf afed e9bf fd44 a4be
00000220: 47f6 b3be 505d 0cbe fcb8 d1be 1eb3 c4be
00000230: ed02 37be 08b6 8ebe 5d8d 65be 744b 41bd
00000240: 3909 32bd d5a1 653e 2b77 e2bd 5b7f 2c3e
00000250: 8f87 8a3e 2629 483d 944a 9c3e ec49 e73e
00000260: edf1 d43e 9c66 e2be ad0d dcbe 11f9 babe
00000270: 157e 52bf d24d 17bf 113a 5cbf 03ca 65be
00000280: e88b 8abe 3c27 c0be 4a38 a83e 09cc d73e
00000290: 6279 5f3e a28b b3bd 0632 1fbe 9a80 a1bf
000002a0: c1c3 473f 7f88 603d ed5e e6bd 9c73 a7bf
000002b0: bb80 9dbf 9950 6bbe 9691 65c0 ed01 54c0
000002c0: fabe 46bf 0f6c cac0 559a f6c0 755a ecbf
000002d0: 3e89 bcbe 9681 9ebd 2e15 fbbc 9283 f1be
000002e0: 2eaf 1fbe 48ca 17be a164 1ebf d263 bbbe
000002f0: c1e3 e3be c6c1 a43f 911b 063f 503f 6bbe
00000300: 1266 e73e 862e fcbe ca36 e3bf cb56 863e
00000310: 7d22 42bf f753 00c0 d666 03be 34fa cdbd
00000320: 77e9 8a3d 1302 a8be bdde 84be 54c4 bbbc
00000330: 4973 84be 9be5 d8bd b4a3 0b3e e3c9 c8bd
00000340: 1e1d d83e 74e6 2a3f 89e0 ce3c fea2 283e
00000350: 4546 bd3e 1c75 2abe c067 8ebd c7ac 7a3e
00000360: 2be0 60bf d424 89bf 3b03 a8be 5e1d a6be
00000370: c4a1 78bf bc6a f7be 4a9a 5f3e 9432 d8be
00000380: b257 823e e783 c43e 4270 ae3e 4fa8 b03e
00000390: 2a07 813e 3a06 b53d 471f 36bc 5586 883e
000003a0: 7f1b b93d fb1e 94bc 9590 313b f83b 943d
000003b0: 62b7 853e 8818 c83e 94ab 7c3d a25e 4ebe
000003c0: 1432 333f c4fb 993d 1fd0 4abe 8783 08bd
000003d0: 7e06 e63d 04e2 de3e 8a3c 2e3f 7762 993e
000003e0: 2c35 673e 33dc 973f 524b 133f de73 cf3e
000003f0: 5022 bb3f a504 3b3f 866c a63e 7e91 4b3f

client.2.bias f4 [128]
-0.4158718 0.43279067 -0.0049516447 -0.39303565 -0.14765722 -0.1000938 0.139204 -0.20932703
0.83466697 -0.039792385 0.08312449 0.014943175 -0.46011645 -0.04981723 -0.25260025 -0.1093651
0.6941816 0.36226478 -0.026278637 -0.2477037 -0.44661406 -0.40927243 -0.12065274 0.10577267
0.63589287 -0.025059294 -0.016691498 -0.5660548 -0.04502685 0.07722711 -0.5665007 0.48426956
0.33047387 -0.085311554 -0.16378444 -0.5163446 -0.7850069 0.004399165 0.14569159 -0.19301105
-0.6169735 -0.4795407 -0.046927556 0.42884538 0.44619614 -0.118885055 0.15850411 -0.2427933
0.28655022 0.18891822 0.61238426 -0.9781723 -1.0243492 -0.67424417 -0.028309504 0.18598038
-0.0866942 -0.7818322 -0.32189828 -0.48423126 -0.13302074 -0.60085756 -0.054023392 -0.049861986
-0.8415415 0.29004708 -0.9437916 -0.063854724 -0.37016904 -0.008602133 -0.057719745 0.16129012
0.8938386 0.5053239 0.1830039 0.16800205 -0.053788766 -0.6300882 0.21090502 -0.24062301
0.47508958 0.3410388 -0.33557597 -0.036153916 0.29375744 -0.033103354 -0.07149612 -0.39716062
-0.023000728 0.29036853 -0.13600236 0.008374307 -0.32087466 -0.04028239 0.44427857 -0.0767604
0.5036557 0.20279452 0.49655166 -0.056783825 -0.05753076 -0.033875026 -0.15676065 -0.05418499
0.102990426 -0.20387901 -0.17161024 0.028516928 -0.2535371 -0.35549253 -0.12591144 0.0020554087
0.13043076 0.25021216 -0.23779216 -0.27569717 0.2899598 -0.45647064 -0.06292226 0.11463768
0.44168994 -0.0034716725 0.26255322 -0.55055815 0.012897077 -0.36780182 -0.36782324 -0.25034407
00000000: 26ed d4be bd96 dd3e 6841 a2bb f83b c9be
00000010: 7433 17be fafd ccbd 7e8b 0e3e d359 56be
00000020: bcac 553f 57fd 22bd 2c3d aa3d 38d4 743c
00000030: 6294 ebbe 270d 4cbd d254 81be cffa dfbd
00000040: e3b5 313f c57a b93e 4c46 d7bc 0aa6 7dbe
00000050: 99aa e4be 288c d1be c918 f7bd 579f d83d
00000060: e0c9 223f 2649 cdbc 9cbc 88bc f8e8 10bf
00000070: 136e 38bd 3f29 9e3d 3106 11bf 2ef2 f73e
00000080: df33 a93e d3b7 aebd 1cb7 27be 292f 04bf
00000090: 36f6 48bf df26 903b 2d30 153e b0a4 45be
000000a0: faf1 1dbf 5c86 f5be 1c37 40bd 9f91 db3e
000000b0: d273 e43e 027a f3bd e74e 223e cf9e 78be
000000c0: b6b6 923e c773 413e 37c5 1c3f 8069 7abf
000000d0: e01d 83bf 449b 2cbf 55e9 e7bc a471 3e3e
000000e0: bb8c b1bd 2826 48bf dacf a4be 29ed f7be
000000f0: 9736 08be cdd1 19bf a247 5dbd 153c 4cbd
00000100: 446f 57bf 0d81 943e 549c 71bf 44c6 82bd
00000110: cc86 bdbe f6ef 0cbc 8a6b 6cbd 3d29 253e
00000120: 9bd2 643f e85c 013f 6065 3b3e bb08 2c3e
00000130: 9c51 5cbd 764d 21bf 7cf7 573e e165 76be
00000140: f13e f33e a39c ae3e 9dd0 abbe 2116 14bd
00000150: 6067 963e 6297 07bd 8f6c 92bd a358 cbbe
00000160: 066c bcbc 2fab 943e 3444 0bbe 6434 093c
00000170: af49 a4be 26ff 24bd 7b78 e33e 8e34 9dbd
00000180: 94ef 003f 5ea9 4f3e 053c fe3e 2896 68bd
00000190: 60a5 6bbd 8ac0 0abd dd85 20be 14f1 5dbd
000001a0: a5ec d23d a9c5 50be 98ba 2fbe 559c e93c
000001b0: 9dcf 81be 1e03 b6be eeee 00be 09b4 063b
000001c0: a48f 053e cf1b 803e ca7f 73be 2e28 8dbe
000001d0: 9c75 943e 85b6 e9be 63dd 80bd 29c7 ea3d
000001e0: 2f25 e23e 0085 63bb 606d 863e 61f1 0cbf
000001f0: 434e 533c 8550 bcbe 5453 bcbe 192d 80be

server.2.weight f4 [10, 128]
-0.5041815 -0.022553576 0.45045036 -0.40916562 0.07734457 -0.12938064 -0.0021073748 -0.18576124
0.1574767 -0.033697832 -0.41893497 -0.12859088 -0.14959106 0.004175468 0.39127082 -0.27238846
0.18285552 0.13152054 -1.010223 -0.64183414 -0.9221684 -0.72129834 1.4462345 0.8889513
0.06876224 -0.058231 -0.009313141 -0.21089883 -0.011153923 0.47878003 0.32019928 0.6974477
1.465009 -0.0384537 -0.24089855 0.6702559 -0.055410754 0.04328233 -0.50669426 0.031753343
-0.37849608 0.24651693 -0.0041167075 0.2610479 0.20034887 -1.1385976 -0.6133426 0.5121581
0.35271126 -0.018068586 -0.63203937 -0.7768082 0.27490678 1.7710685 0.037600853 -0.36162674
0.12647174 1.0186409 -0.08690547 0.50687295 -0.536425 0.3421649 0.06671317 0.20378661
0.2226867 0.2250141 0.4784631 -0.039248105 0.52507454 0.09415337 0.08441491 -0.6799259
0.1465378 -1.067075 0.5456528 0.30642462 -0.093930334 0.251883 -1.0738285 -0.5492999
2.0362363 0.3212288 0.32657427 -0.8089326 0.09075068 0.050743084 -0.009310278 -0.28764904
0.051020436 0.6482501 0.45853925 -0.004852154 -0.32660267 0.05887981 -0.43752563 -0.05727655
-0.1167808 -0.41340956 -0.24914765 -0.029034603 0.061562516 0.018919053 -1.1917725 -0.3939247
-0.09210765 -0.12582031 0.8049529 -0.9035746 -0.564783 1.042699 -0.37678725 -0.006347166
0.11622025 0.114875965 -1.1092895 0.33231398 -0.69837004 0.094361745 -0.054104555 -0.0115614915
1.0446888 -0.3858226 -0.14554754 0.52661103 0.96075356 0.04464773 -1.1441545 0.33602566
0.56369454 -1.0361346 0.83586574 -0.096804366 -0.71552145 0.01691092 1.2314522 1.0850244
-0.6741927 -0.06761439 0.7794261 -0.024098305 0.07798064 -0.95949334 0.59990805 -0.01305155
0.9594494 -0.30656442 -0.61982083 -0.61389923 -0.9631558 0.5507265 -1.1899916 -0.2541036
-1.0041536 -0.073685795 0.08094556 0.26272336 -0.7063482 -0.17319117 0.94470423 1.7225225
1.6566067 0.026401749 -0.575046 0.8824964 0.44100347 -0.059850667 0.107354805 -0.30834755
1.1812297 0.10156126 0.08294491 0.47676697 1.1678718 -0.52835494 -0.8497878 0.41477334
0.94238126 0.6715617 -1.3561748 1.0807337 0.05074111 0.075739816 -0.054201126 -0.61160815
-0.88039863 1.1133416 0.12363825 0.39585748 1.0391308 -0.2996754 -0.00041068607 0.840589
1.0638429 1.2663387 -1.2802582 -0.04454889 0.7885847 0.011986598 -0.074927345 -0.08574655
-0.065676205 -1.1467326 1.07207 -1.1252717 -0.08062088 1.300203 -0.117124304 0.37456578
0.10719315 -0.19919035 0.57761157 0.39786577 -1.3356826 0.037050746 -0.04415312 0.16040297
-0.04774379 -0.7048632 -1.6641523 0.023123289 0.8260954 -0.06907607 -0.15055673 0.42455056
-0.35606444 -0.47624746 -0.7635271 0.030982468 0.029362176 -0.04087213 -1.560499 0.65709126
-0.36242908 -0.30075708 -0.1797645 -0.8255724 -0.8581046 1.7275488 -0.25556922 -0.043051008
-1.4530988 0.86000496 1.45348 -0.1674778 0.3943458 -0.5893734 -0.032503832 -1.0279831
-0.93477535 -0.6641263 -1.69684 1.6004193 -0.6435164 0.85921973 -0.105125815 0.78465706
00000000: 0a12 01bf 47c2 b8bc 6ea1 e63e 287e d1be
00000010: d466 9e3d 5c7c 04be e21b 0abb 3238 3ebe
00000020: 9241 213e bd06 0abd a57e d6be 54ad 03be
00000030: 662e 19be 5dd2 883b a654 c83e 8076 8bbe
00000040: 7a3e 3b3e 52ad 063e fd4e 81bf 3e4f 24bf
00000050: 3a13 6cbf 02a7 38bf 361e b93f 5092 633f
00000060: 38d3 8c3d a183 6ebd 2596 18bc ddf5 57be
00000070: f2be 36bc a822 f53e 29f1 a33e ef8b 323f
00000080: 6a85 bb3f a081 1dbd 1cae 76be e495 2b3f
00000090: 63f6 62bd d048 313d b7b6 01bf cb0f 023d
000000a0: 3dca c1be ef6e 7c3e 72e5 86bb 12a8 853e
000000b0: 4128 4d3e 91bd 91bf 0504 1dbf cb1c 033f
000000c0: 9296 b43e 9204 94bc 55cd 21bf e7dc 46bf
000000d0: 95c0 8c3e 5fb2 e23f 5a03 1a3d 2427 b9be
000000e0: cf81 013e d362 823f 7ffb b1bd 6dc2 013f
000000f0: 2653 09bf 3d30 af3e eaa0 883d 70ad 503e
00000100: fb07 643e 196a 663e 1ef9 f43e 9fc2 20bd
00000110: 496b 063f 7bd3 c03d b9e1 ac3d a00f 2ebf
00000120: 010e 163e ea95 88bf e7af 0b3f b0e3 9c3e
00000130: 8c5e c0bd cff6 803e 3673 89bf eb9e 0cbf
00000140: b251 0240 1a78 a43e be34 a73e 3516 4fbf
00000150: 7edb b93d fbd7 4f3d 238a 18bc bc46 93be
00000160: cefa 503d b8f3 253f a8c5 ea3e d1fe 9ebb
00000170: 7738 a7be f52b 713d 5c03 e0be d19a 6abd
00000180: c62a efbd 6baa d3be 9020 7fbe fad9 edbc
00000190: fa28 7c3d 21fc 9a3c 008c 98bf 80b0 c9be
000001a0: f0a2 bcbd 0ad7 00be 6511 4e3f aa50 67bf
000001b0: 9e95 10bf 2977 853f 42ea c0be e3fb cfbb
000001c0: e204 ee3d 1744 eb3d 33fd 8dbf 0f25 aa3e
000001d0: 61c8 32bf bb40 c13d bd9c 5dbd 696c 3dbc
000001e0: 5db8 853f 8a8a c5be 6a0a 15be fbcf 063f
000001f0: f2f3 753f 8ae0 363d a873 92bf 8e0b ac3e
00000200: 494e 103f 0fa0 84bf 4cfb 553f 5e41 c6bd
00000210: 6a2c 37bf c588 8a3c 3aa0 9d3f 14e2 8a3f
00000220: e597 2cbf 6a79 8abd 7888 473f cf69 c5bc
00000230: 50b4 9f3d 5ba1 75bf 9393 193f 2bd6 55bc
00000240: 7a9e 753f 03f6 9cbe 94ac 1ebf 8028 1dbf
00000250: 6191 76bf 69fc 0c3f a551 98bf de19 82be
00000260: 1b88 80bf 94e8 96bd c9c6 a53d ad83 863e
00000270: 3cd3 34bf 0759 31be 23d8 713f 9e7b dc3f
00000280: b00b d43f 7b48 d83c 3736 13bf 49eb 613f
00000290: 35cb e13e f925 75bd d6dc db3d bbdf 9dbe
000002a0: 8932 973f 5aff cf3d 05df a93d cd1a f43e
000002b0: d37c 953f 4542 07bf b18b 59bf 2c5d d43e
000002c0: e63f 713f 78eb 2b3f 2397 adbf 7b55 8a3f
000002d0: e9d5 4f3d 7a1d 9b3d 0002 5ebd 5a92 1cbf
000002e0: ce61 61bf fa81 8e3f 0d36 fd3d d5ad ca3e
000002f0: 3d02 853f 0e6f 99be 5a51 d7b9 d730 573f
00000300: 012c 883f 6317 a23f 80df a3bf e678 36bd
00000310: b0e0 493f 7063 443c 8273 99bd e39b afbd
00000320: 3f81 86bd 22c8 92bf 9739 893f e708 90bf
00000330: 8f1c a5bd 0d6d a63f dede efbd 16c7 bf3e
00000340: 1588 db3d 8ef8 4bbe 5ade 133f 10b5 cb3e
00000350: a6f7 aabf 86c2 173d e7d9 34bd ad40 243e
00000360: fe8e 43bd ea71 34bf f102 d5bf 0d6d bd3c
00000370: fd7a 533f c177 8dbd 8b2b 1abe b15e d93e
00000380: 144e b6be b5d6 f3be 8376 43bf f2ce fd3c
00000390: f288 f03c 8969 27bd 6ebe c7bf 2237 283f
000003a0: 4e90 b9be d5fc 99be 2f14 38be b658 53bf
000003b0: beac 5bbf 5220 dd3f f8d9 82be 4156 30bd
000003c0: 24ff b9bf 4929 5c3f a20b ba3f 4d7f 2bbe
000003d0: b1e7 c93e 2de1 16bf bd22 05bd f394 83bf
000003e0: 704d 6fbf 2e04 2abf 0e32 d9bf 8ada cc3f
000003f0: 7ebd 24bf d3f5 5b3f 344c d7bd 49df 483f

server.2.bias f4 [10]
0.1458496 -0.59179664 0.24815431 0.176335 0.09343347 -0.072163776 0.35469788 -0.4374687
0.026312932 -0.2096191
00000000: 9959 153e fc7f 17bf 2a1c 7e3e 2a91 343e
00000010: 0c5a bf3d 9aca 93bd f69a b53e e6fb dfbe
00000020: 388e d73c 64a6 56be
